…
2024-12-29 10:52:16 Loading CUDA ray marching module (compiling might take a while)...
2024-12-29 10:53:47 	Done.
2024-12-29 10:53:47 Loading tiledgrid encoding (compiling might take a while)...
2024-12-29 10:54:39 	Done!
2024-12-29 10:54:39 Loading frequency encoding (compiling might take a while)...
2024-12-29 10:55:51 	Done!
2024-12-29 10:55:51 Loaded grid NeRF, #parameters: 12249145
2024-12-29 10:55:51 NeRFNetwork(
  (encoder): GridEncoder: input_dim=3 num_levels=16 level_dim=2 resolution=16 -> 2048 per_level_scale=1.3819 params=(6119864, 2) gridtype=tiled align_corners=False
  (sigma_net): MLP(
    (net): ModuleList(
      (0): Linear(in_features=32, out_features=64, bias=True)
      (1): Linear(in_features=64, out_features=64, bias=True)
      (2): Linear(in_features=64, out_features=5, bias=True)
    )
  )
  (encoder_bg): FreqEncoder: input_dim=3 degree=6 output_dim=39
  (bg_net): MLP(
    (net): ModuleList(
      (0): Linear(in_features=39, out_features=64, bias=True)
      (1): Linear(in_features=64, out_features=4, bias=True)
    )
  )
)
2024-12-29 10:55:51 try to load hugging face access token from the default place, make sure you have run `huggingface-cli login`.
2024-12-29 10:55:51 loading stable diffusion with CompVis/stable-diffusion-v1-4...
2024-12-29 10:55:57 	 successfully loaded stable diffusion!
2024-12-29 10:55:57 Successfully initialized experiment
2024-12-29 10:55:57 Starting training ^_^
…
2025-01-14 09:42:28 Loading hashgrid encoding (compiling might take a while)...
2025-01-14 09:47:17 Loading CUDA ray marching module (compiling might take a while)...
2025-01-14 09:48:36 	Done.
2025-01-14 09:48:36 Loading frequency encoding (compiling might take a while)...
2025-01-14 09:49:48 	Done!
2025-01-14 09:49:48 Loading frequency encoding (compiling might take a while)...
2025-01-14 09:49:48 	Done!
2025-01-14 09:49:48 Loaded grid NeRF, #parameters: 9865
2025-01-14 09:49:48 NeRFNetwork(
  (encoder): FreqEncoder: input_dim=3 degree=6 output_dim=39
  (sigma_net): MLP(
    (net): ModuleList(
      (0): Linear(in_features=39, out_features=64, bias=True)
      (1): Linear(in_features=64, out_features=64, bias=True)
      (2): Linear(in_features=64, out_features=5, bias=True)
    )
  )
  (encoder_bg): FreqEncoder: input_dim=3 degree=6 output_dim=39
  (bg_net): MLP(
    (net): ModuleList(
      (0): Linear(in_features=39, out_features=64, bias=True)
      (1): Linear(in_features=64, out_features=4, bias=True)
    )
  )
)
2025-01-14 09:49:48 try to load hugging face access token from the default place, make sure you have run `huggingface-cli login`.
2025-01-14 09:49:48 loading stable diffusion with CompVis/stable-diffusion-v1-4...
2025-01-14 09:49:55 	 successfully loaded stable diffusion!
2025-01-14 09:49:56 Successfully initialized experiment
2025-01-14 09:49:56 Starting training ^_^
…
2025-01-14 09:54:36 Loading sphere_harmonics encoding (compiling might take a while)...
2025-01-14 09:57:37 Loading CUDA ray marching module (compiling might take a while)...
2025-01-14 09:58:56 	Done.
2025-01-14 09:58:56 Loading sphere_harmonics encoding (compiling might take a while)...
2025-01-14 10:00:08 	Done!
2025-01-14 10:00:08 Loading frequency encoding (compiling might take a while)...
2025-01-14 10:01:06 	Done!
2025-01-14 10:01:06 Loaded grid NeRF, #parameters: 8393
2025-01-14 10:01:06 NeRFNetwork(
  (encoder): SHEncoder: input_dim=3 degree=4
  (sigma_net): MLP(
    (net): ModuleList(
      (0): Linear(in_features=16, out_features=64, bias=True)
      (1): Linear(in_features=64, out_features=64, bias=True)
      (2): Linear(in_features=64, out_features=5, bias=True)
    )
  )
  (encoder_bg): FreqEncoder: input_dim=3 degree=6 output_dim=39
  (bg_net): MLP(
    (net): ModuleList(
      (0): Linear(in_features=39, out_features=64, bias=True)
      (1): Linear(in_features=64, out_features=4, bias=True)
    )
  )
)
2025-01-14 10:01:06 try to load hugging face access token from the default place, make sure you have run `huggingface-cli login`.
2025-01-14 10:01:06 loading stable diffusion with CompVis/stable-diffusion-v1-4...
2025-01-14 10:01:10 	 successfully loaded stable diffusion!
2025-01-14 10:01:11 Successfully initialized experiment
2025-01-14 10:01:11 Starting training ^_^
…
